…
stepsize: 5000
snapshot: 0
snapshot_prefix: "gtsdb_v1"
average_loss: 100
iter_size: 10
I0116 18:47:30.941370  1477 solver.cpp:81] Creating training net from train_net file: models/gtsdb/faster_rcnn_end2end/train.prototxt
I0116 18:47:30.942322  1477 net.cpp:58] Initializing net from parameters: 
name: "VGG_ILSVRC_16_layers"
state {
  phase: TRAIN
}
layer {
  name: "input-data"
  type: "Python"
  top: "data"
  top: "im_info"
  top: "gt_boxes"
  python_param {
    module: "roi_data_layer.layer"
    layer: "RoIDataLayer"
    param_str: "\'num_classes\': 5"
  }
}
layer {
  name: "conv1_1"
  type: "Convolution"
  bottom: "data"
  top: "conv1_1"
  param {
    lr_mult: 1
  }
  param {
    lr_mult: 2
  }
  convolution_param {
    num_output: 64
    pad: 1
    kernel_size: 3
    weight_filler {
      type: "gaussian"
      std: 0.01
    }
    bias_filler {
      type: "constant"
      value: 1
    }
  }
}
layer {
  name: "relu1_1"
  type: "ReLU"
  bottom: "conv1_1"
  top: "conv1_1"
}
layer {
  name: "conv1_2"
  type: "Convolution"
  bottom: "conv1_1"
  top: "conv1_2"
  param {
    lr_mult: 1
  }
  param {
    lr_mult: 2
  }
  convolution_param {
    num_output: 64
    pad: 1
    kernel_size: 3
    weight_filler {
      type: "gaussian"
      std: 0.01
    }
    bias_filler {
      type: "constant"
      value: 1
    }
  }
}
layer {
  name: "relu1_2"
  type: "ReLU"
  bottom: "conv1_2"
  top: "conv1_2"
}
layer {
  name: "pool1"
  type: "Pooling"
  bottom: "conv1_2"
  top: "pool1"
  pooling_param {
    pool: MAX
    kernel_size: 2
    stride: 2
  }
}
layer {
  name: "conv2_1"
  type: "Convolution"
  bottom: "pool1"
  top: "conv2_1"
  param {
    lr_mult: 1
  }
  param {
    lr_mult: 2
  }
  convolution_param {
    num_output: 128
    pad: 1
    kernel_size: 3
    weight_filler {
      type: "gaussian"
      std: 0.01
    }
    bias_filler {
      type: "constant"
      value: 1
    }
  }
}
layer {
  name: "relu2_1"
  type: "ReLU"
  bottom: "conv2_1"
  top: "conv2_1"
}
layer {
  name: "conv2_2"
  type: "Convolution"
  bottom: "conv2_1"
  top: "conv2_2"
  param {
    lr_mult: 1
  }
  param {
    lr_mult: 2
  }
  convolution_param {
    num_output: 128
    pad: 1
    kernel_size: 3
    weight_filler {
      type: "gaussian"
      std: 0.01
    }
    bias_filler {
      type: "constant"
      value: 1
    }
  }
}
layer {
  name: "relu2_2"
  type: "ReLU"
  bottom: "conv2_2"
  top: "conv2_2"
}
layer {
  name: "pool2"
  type: "Pooling"
  bottom: "conv2_2"
  top: "pool2"
  pooling_param {
    pool: MAX
    kernel_size: 2
    stride: 2
  }
}
layer {
  name: "conv3_1"
  type: "Convolution"
  bottom: "pool2"
  top: "conv3_1"
  param {
    lr_mult: 1
  }
  param {
    lr_mult: 2
  }
  convolution_param {
    num_output: 256
    pad: 1
    kernel_size: 3
    weight_filler {
      type: "gaussian"
      std: 0.01
    }
    bias_filler {
      type: "constant"
      value: 1
    }
  }
}
layer {
  name: "relu3_1"
  type: "ReLU"
  bottom: "conv3_1"
  top: "conv3_1"
}
layer {
  name: "conv3_2"
  type: "Convolution"
  bottom: "conv3_1"
  top: "conv3_2"
  param {
    lr_mult: 1
  }
  param {
    lr_mult: 2
  }
  convolution_param {
    num_output: 256
    pad: 1
    kernel_size: 3
    weight_filler {
      type: "gaussian"
      std: 0.01
    }
    bias_filler {
      type: "constant"
      value: 1
    }
  }
}
layer {
  name: "relu3_2"
  type: "ReLU"
  bottom: "conv3_2"
  top: "conv3_2"
}
layer {
  name: "conv3_3"
  type: "Convolution"
  bottom: "conv3_2"
  top: "conv3_3"
  param {
    lr_mult: 1
  }
  param {
    lr_mult: 2
  }
  convolution_param {
    num_output: 256
    pad: 1
    kernel_size: 3
    weight_filler {
      type: "gaussian"
      std: 0.01
    }
    bias_filler {
      type: "constant"
      value: 1
    }
  }
}
layer {
  name: "relu3_3"
  type: "ReLU"
  bottom: "conv3_3"
  top: "conv3_3"
}
layer {
  name: "pool3"
  type: "Pooling"
  bottom: "conv3_3"
  top: "pool3"
  pooling_param {
    pool: MAX
    kernel_size: 2
    stride: 2
  }
}
layer {
  name: "conv4_1"
  type: "Convolution"
  bottom: "pool3"
  top: "conv4_1"
  param {
    lr_mult: 1
  }
  param {
    lr_mult: 2
  }
  convolution_param {
    num_output: 512
    pad: 1
    kernel_size: 3
    weight_filler {
      type: "gaussian"
      std: 0.01
    }
    bias_filler {
      type: "constant"
      value: 1
    }
  }
}
layer {
  name: "relu4_1"
  type: "ReLU"
  bottom: "conv4_1"
  top: "conv4_1"
}
layer {
  name: "conv4_2"
  type: "Convolution"
  bottom: "conv4_1"
  top: "conv4_2"
  param {
    lr_mult: 1
  }
  param {
    lr_mult: 2
  }
  convolution_param {
    num_output: 512
    pad: 1
    kernel_size: 3
    weight_filler {
      type: "gaussian"
      std: 0.01
    }
    bias_filler {
      type: "constant"
      value: 1
    }
  }
}
layer {
  name: "relu4_2"
  type: "ReLU"
  bottom: "conv4_2"
  top: "conv4_2"
}
layer {
  name: "conv4_3"
  type: "Convolution"
  bottom: "conv4_2"
  top: "conv4_3"
  param {
    lr_mult: 1
  }
  param {
    lr_mult: 2
  }
  convolution_param {
    num_output: 512
    pad: 1
    kernel_size: 3
    weight_filler {
      type: "gaussian"
      std: 0.01
    }
    bias_filler {
      type: "constant"
      value: 1
    }
  }
}
layer {
  name: "relu4_3"
  type: "ReLU"
  bottom: "conv4_3"
  top: "conv4_3"
}
layer {
  name: "pool4"
  type: "Pooling"
  bottom: "conv4_3"
  top: "pool4"
  pooling_param {
    pool: MAX
    kernel_size: 2
    stride: 2
  }
}
layer {
  name: "conv5_1"
  type: "Convolution"
  bottom: "pool4"
  top: "conv5_1"
  param {
    lr_mult: 1
  }
  param {
    lr_mult: 2
  }
  convolution_param {
    num_output: 512
    pad: 1
    kernel_size: 3
    weight_filler {
      type: "gaussian"
      std: 0.01
    }
    bias_filler {
      type: "constant"
      value: 1
    }
  }
}
layer {
  name: "relu5_1"
  type: "ReLU"
  bottom: "conv5_1"
  top: "conv5_1"
}
layer {
  name: "conv5_2"
  type: "Convolution"
  bottom: "conv5_1"
  top: "conv5_2"
  param {
    lr_mult: 1
  }
  param {
    lr_mult: 2
  }
  convolution_param {
    num_output: 512
    pad: 1
    kernel_size: 3
    weight_filler {
      type: "gaussian"
      std: 0.01
    }
    bias_filler {
      type: "constant"
      value: 1
    }
  }
}
layer {
  name: "relu5_2"
  type: "ReLU"
  bottom: "conv5_2"
  top: "conv5_2"
}
layer {
  name: "conv5_3"
  type: "Convolution"
  bottom: "conv5_2"
  top: "conv5_3"
  param {
    lr_mult: 1
  }
  param {
    lr_mult: 2
  }
  convolution_param {
    num_output: 512
    pad: 1
    kernel_size: 3
    weight_filler {
      type: "gaussian"
      std: 0.01
    }
    bias_filler {
      type: "constant"
      value: 1
    }
  }
}
layer {
  name: "relu5_3"
  type: "ReLU"
  bottom: "conv5_3"
  top: "conv5_3"
}
layer {
  name: "rpn_conv/3x3"
  type: "Convolution"
  bottom: "conv5_3"
  top: "rpn/output"
  param {
    lr_mult: 1
  }
  param {
    lr_mult: 2
  }
  convolution_param {
    num_output: 512
    pad: 1
    kernel_size: 3
    stride: 1
    weight_filler {
      type: "gaussian"
      std: 0.01
    }
    bias_filler {
      type: "constant"
      value: 0
    }
  }
}
layer {
  name: "rpn_relu/3x3"
  type: "ReLU"
  bottom: "rpn/output"
  top: "rpn/output"
}
layer {
  name: "rpn_cls_score"
  type: "Convolution"
  bottom: "rpn/output"
  top: "rpn_cls_score"
  param {
    lr_mult: 1
  }
  param {
    lr_mult: 2
  }
  convolution_param {
    num_output: 18
    pad: 0
    kernel_size: 1
    stride: 1
    weight_filler {
      type: "gaussian"
      std: 0.01
    }
    bias_filler {
      type: "constant"
      value: 0
    }
  }
}
layer {
  name: "rpn_bbox_pred"
  type: "Convolution"
  bottom: "rpn/output"
  top: "rpn_bbox_pred"
  param {
    lr_mult: 1
  }
  param {
    lr_mult: 2
  }
  convolution_param {
    num_output: 36
    pad: 0
    kernel_size: 1
    stride: 1
    weight_filler {
      type: "gaussian"
      std: 0.01
    }
    bias_filler {
      type: "constant"
      value: 0
    }
  }
}
layer {
  name: "rpn_cls_score_reshape"
  type: "Reshape"
  bottom: "rpn_cls_score"
  top: "rpn_cls_score_reshape"
  reshape_param {
    shape {
      dim: 0
      dim: 2
      dim: -1
      dim: 0
    }
  }
}
layer {
  name: "rpn-data"
  type: "Python"
  bottom: "rpn_cls_score"
  bottom: "gt_boxes"
  bottom: "im_info"
  bottom: "data"
  top: "rpn_labels"
  top: "rpn_bbox_targets"
  top: "rpn_bbox_inside_weights"
  top: "rpn_bbox_outside_weights"
  python_param {
    module: "rpn.anchor_target_layer"
    layer: "AnchorTargetLayer"
    param_str: "\'feat_stride\': 16"
  }
}
layer {
  name: "rpn_loss_cls"
  type: "SoftmaxWithLoss"
  bottom: "rpn_cls_score_reshape"
  bottom: "rpn_labels"
  top: "rpn_cls_loss"
  loss_weight: 1
  propagate_down: true
  propagate_down: false
  loss_param {
    ignore_label: -1
    normalize: true
  }
}
layer {
  name: "rpn_loss_bbox"
  type: "SmoothL1Loss"
  bottom: "rpn_bbox_pred"
  bottom: "rpn_bbox_targets"
  bottom: "rpn_bbox_inside_weights"
  bottom: "rpn_bbox_outside_weights"
  top: "rpn_loss_bbox"
  loss_weight: 1
  smooth_l1_loss_param {
    sigma: 3
  }
}
layer {
  name: "rpn_cls_prob"
  type: "Softmax"
  bottom: "rpn_cls_score_reshape"
  top: "rpn_cls_prob"
}
layer {
  name: "rpn_cls_prob_reshape"
  type: "Reshape"
  bottom: "rpn_cls_prob"
  top: "rpn_cls_prob_reshape"
  reshape_param {
    shape {
      dim: 0
      dim: 18
      dim: -1
      dim: 0
    }
  }
}
layer {
  name: "proposal"
  type: "Python"
  bottom: "rpn_cls_prob_reshape"
  bottom: "rpn_bbox_pred"
  bottom: "im_info"
  top: "rpn_rois"
  python_param {
    module: "rpn.proposal_layer"
    layer: "ProposalLayer"
    param_str: "\'feat_stride\': 16"
  }
}
layer {
  name: "roi-data"
  type: "Python"
  bottom: "rpn_rois"
  bottom: "gt_boxes"
  top: "rois"
  top: "labels"
  top: "bbox_targets"
  top: "bbox_inside_weights"
  top: "bbox_outside_weights"
  python_param {
    module: "rpn.proposal_target_layer"
    layer: "ProposalTargetLayer"
    param_str: "\'num_classes\': 5"
  }
}
layer {
  name: "roi_pool5"
  type: "ROIPooling"
  bottom: "conv5_3"
  bottom: "rois"
  top: "pool5"
  roi_pooling_param {
    pooled_h: 7
    pooled_w: 7
    spatial_scale: 0.0625
  }
}
layer {
  name: "fc6"
  type: "InnerProduct"
  bottom: "pool5"
  top: "fc6"
  param {
    lr_mult: 1
  }
  param {
    lr_mult: 2
  }
  inner_product_param {
    num_output: 4096
    weight_filler {
      type: "gaussian"
      std: 0.01
    }
    bias_filler {
      type: "constant"
      value: 1
    }
  }
}
layer {
  name: "relu6"
  type: "ReLU"
  bottom: "fc6"
  top: "fc6"
}
layer {
  name: "drop6"
  type: "Dropout"
  bottom: "fc6"
  top: "fc6"
  dropout_param {
    dropout_ratio: 0.5
  }
}
layer {
  name: "fc7"
  type: "InnerProduct"
  bottom: "fc6"
  top: "fc7"
  param {
    lr_mult: 1
  }
  param {
    lr_mult: 2
  }
  inner_product_param {
    num_output: 4096
    weight_filler {
      type: "gaussian"
      std: 0.01
    }
    bias_filler {
      type: "constant"
      value: 1
    }
  }
}
layer {
  name: "relu7"
  type: "ReLU"
  bottom: "fc7"
  top: "fc7"
}
layer {
  name: "drop7"
  type: "Dropout"
  bottom: "fc7"
  top: "fc7"
  dropout_param {
    dropout_ratio: 0.5
  }
}
layer {
  name: "cls_score_new"
  type: "InnerProduct"
  bottom: "fc7"
  top: "cls_score"
  param {
    lr_mult: 1
  }
  param {
    lr_mult: 2
  }
  inner_product_param {
    num_output: 5
    weight_filler {
      type: "gaussian"
      std: 0.01
    }
    bias_filler {
      type: "constant"
      value: 0
    }
  }
}
layer {
  name: "bbox_pred_new"
  type: "InnerProduct"
  bottom: "fc7"
  top: "bbox_pred"
  param {
    lr_mult: 1
  }
  param {
    lr_mult: 2
  }
  inner_product_param {
    num_output: 20
    weight_filler {
      type: "gaussian"
      std: 0.001
    }
    bias_filler {
      type: "constant"
      value: 0
    }
  }
}
layer {
  name: "loss_cls"
  type: "SoftmaxWithLoss"
  bottom: "cls_score"
  bottom: "labels"
  top: "loss_cls"
  loss_weight: 2
  propagate_down: true
  propagate_down: false
}
layer {
  name: "loss_bbox"
  type: "SmoothL1Loss"
  bottom: "bbox_pred"
  bottom: "bbox_targets"
  bottom: "bbox_inside_weights"
  bottom: "bbox_outside_weights"
  top: "loss_bbox"
  loss_weight: 1
}
I0116 18:47:30.942543  1477 layer_factory.hpp:77] Creating layer input-data
I0116 18:47:30.946475  1477 net.cpp:100] Creating Layer input-data
I0116 18:47:30.946490  1477 net.cpp:408] input-data -> data
I0116 18:47:30.946496  1477 net.cpp:408] input-data -> im_info
I0116 18:47:30.946501  1477 net.cpp:408] input-data -> gt_boxes
I0116 18:47:30.959211  1477 net.cpp:150] Setting up input-data
I0116 18:47:30.959230  1477 net.cpp:157] Top shape: 1 3 600 1000 (1800000)
I0116 18:47:30.959234  1477 net.cpp:157] Top shape: 1 3 (3)
I0116 18:47:30.959236  1477 net.cpp:157] Top shape: 1 4 (4)
I0116 18:47:30.959239  1477 net.cpp:165] Memory required for data: 7200028
I0116 18:47:30.959259  1477 layer_factory.hpp:77] Creating layer data_input-data_0_split
I0116 18:47:30.959286  1477 net.cpp:100] Creating Layer data_input-data_0_split
I0116 18:47:30.959290  1477 net.cpp:434] data_input-data_0_split <- data
I0116 18:47:30.959295  1477 net.cpp:408] data_input-data_0_split -> data_input-data_0_split_0
I0116 18:47:30.959302  1477 net.cpp:408] data_input-data_0_split -> data_input-data_0_split_1
I0116 18:47:30.959344  1477 net.cpp:150] Setting up data_input-data_0_split
I0116 18:47:30.959349  1477 net.cpp:157] Top shape: 1 3 600 1000 (1800000)
I0116 18:47:30.959353  1477 net.cpp:157] Top shape: 1 3 600 1000 (1800000)
I0116 18:47:30.959355  1477 net.cpp:165] Memory required for data: 21600028
I0116 18:47:30.959357  1477 layer_factory.hpp:77] Creating layer im_info_input-data_1_split
I0116 18:47:30.959374  1477 net.cpp:100] Creating Layer im_info_input-data_1_split
I0116 18:47:30.959378  1477 net.cpp:434] im_info_input-data_1_split <- im_info
I0116 18:47:30.959381  1477 net.cpp:408] im_info_input-data_1_split -> im_info_input-data_1_split_0
I0116 18:47:30.959400  1477 net.cpp:408] im_info_input-data_1_split -> im_info_input-data_1_split_1
I0116 18:47:30.959419  1477 net.cpp:150] Setting up im_info_input-data_1_split
I0116 18:47:30.959422  1477 net.cpp:157] Top shape: 1 3 (3)
I0116 18:47:30.959425  1477 net.cpp:157] Top shape: 1 3 (3)
I0116 18:47:30.959427  1477 net.cpp:165] Memory required for data: 21600052
I0116 18:47:30.959430  1477 layer_factory.hpp:77] Creating layer gt_boxes_input-data_2_split
I0116 18:47:30.959434  1477 net.cpp:100] Creating Layer gt_boxes_input-data_2_split
I0116 18:47:30.959450  1477 net.cpp:434] gt_boxes_input-data_2_split <- gt_boxes
I0116 18:47:30.959452  1477 net.cpp:408] gt_boxes_input-data_2_split -> gt_boxes_input-data_2_split_0
I0116 18:47:30.959456  1477 net.cpp:408] gt_boxes_input-data_2_split -> gt_boxes_input-data_2_split_1
I0116 18:47:30.959496  1477 net.cpp:150] Setting up gt_boxes_input-data_2_split
I0116 18:47:30.959501  1477 net.cpp:157] Top shape: 1 4 (4)
I0116 18:47:30.959504  1477 net.cpp:157] Top shape: 1 4 (4)
I0116 18:47:30.959506  1477 net.cpp:165] Memory required for data: 21600084
I0116 18:47:30.959508  1477 layer_factory.hpp:77] Creating layer conv1_1
I0116 18:47:30.959549  1477 net.cpp:100] Creating Layer conv1_1
I0116 18:47:30.959553  1477 net.cpp:434] conv1_1 <- data_input-data_0_split_0
I0116 18:47:30.959556  1477 net.cpp:408] conv1_1 -> conv1_1
I0116 18:47:31.116158  1477 net.cpp:150] Setting up conv1_1
I0116 18:47:31.116196  1477 net.cpp:157] Top shape: 1 64 600 1000 (38400000)
I0116 18:47:31.116199  1477 net.cpp:165] Memory required for data: 175200084
I0116 18:47:31.116215  1477 layer_factory.hpp:77] Creating layer relu1_1
I0116 18:47:31.116230  1477 net.cpp:100] Creating Layer relu1_1
I0116 18:47:31.116233  1477 net.cpp:434] relu1_1 <- conv1_1
I0116 18:47:31.116238  1477 net.cpp:395] relu1_1 -> conv1_1 (in-place)
I0116 18:47:31.116389  1477 net.cpp:150] Setting up relu1_1
I0116 18:47:31.116408  1477 net.cpp:157] Top shape: 1 64 600 1000 (38400000)
I0116 18:47:31.116411  1477 net.cpp:165] Memory required for data: 328800084
I0116 18:47:31.116413  1477 layer_factory.hpp:77] Creating layer conv1_2
I0116 18:47:31.116436  1477 net.cpp:100] Creating Layer conv1_2
I0116 18:47:31.116438  1477 net.cpp:434] conv1_2 <- conv1_1
I0116 18:47:31.116456  1477 net.cpp:408] conv1_2 -> conv1_2
I0116 18:47:31.119164  1477 net.cpp:150] Setting up conv1_2
I0116 18:47:31.119189  1477 net.cpp:157] Top shape: 1 64 600 1000 (38400000)
I0116 18:47:31.119192  1477 net.cpp:165] Memory required for data: 482400084
I0116 18:47:31.119200  1477 layer_factory.hpp:77] Creating layer relu1_2
I0116 18:47:31.119206  1477 net.cpp:100] Creating Layer relu1_2
I0116 18:47:31.119210  1477 net.cpp:434] relu1_2 <- conv1_2
I0116 18:47:31.119212  1477 net.cpp:395] relu1_2 -> conv1_2 (in-place)
I0116 18:47:31.119360  1477 net.cpp:150] Setting up relu1_2
I0116 18:47:31.119366  1477 net.cpp:157] Top shape: 1 64 600 1000 (38400000)
I0116 18:47:31.119384  1477 net.cpp:165] Memory required for data: 636000084
I0116 18:47:31.119386  1477 layer_factory.hpp:77] Creating layer pool1
I0116 18:47:31.119391  1477 net.cpp:100] Creating Layer pool1
I0116 18:47:31.119408  1477 net.cpp:434] pool1 <- conv1_2
I0116 18:47:31.119412  1477 net.cpp:408] pool1 -> pool1
I0116 18:47:31.119455  1477 net.cpp:150] Setting up pool1
I0116 18:47:31.119460  1477 net.cpp:157] Top shape: 1 64 300 500 (9600000)
I0116 18:47:31.119462  1477 net.cpp:165] Memory required for data: 674400084
I0116 18:47:31.119464  1477 layer_factory.hpp:77] Creating layer conv2_1
I0116 18:47:31.119472  1477 net.cpp:100] Creating Layer conv2_1
I0116 18:47:31.119473  1477 net.cpp:434] conv2_1 <- pool1
I0116 18:47:31.119477  1477 net.cpp:408] conv2_1 -> conv2_1
I0116 18:47:31.122372  1477 net.cpp:150] Setting up conv2_1
I0116 18:47:31.122382  1477 net.cpp:157] Top shape: 1 128 300 500 (19200000)
I0116 18:47:31.122400  1477 net.cpp:165] Memory required for data: 751200084
I0116 18:47:31.122406  1477 layer_factory.hpp:77] Creating layer relu2_1
I0116 18:47:31.122426  1477 net.cpp:100] Creating Layer relu2_1
I0116 18:47:31.122428  1477 net.cpp:434] relu2_1 <- conv2_1
I0116 18:47:31.122431  1477 net.cpp:395] relu2_1 -> conv2_1 (in-place)
I0116 18:47:31.122715  1477 net.cpp:150] Setting up relu2_1
I0116 18:47:31.122723  1477 net.cpp:157] Top shape: 1 128 300 500 (19200000)
I0116 18:47:31.122740  1477 net.cpp:165] Memory required for data: 828000084
I0116 18:47:31.122743  1477 layer_factory.hpp:77] Creating layer conv2_2
I0116 18:47:31.122750  1477 net.cpp:100] Creating Layer conv2_2
I0116 18:47:31.122752  1477 net.cpp:434] conv2_2 <- conv2_1
I0116 18:47:31.122771  1477 net.cpp:408] conv2_2 -> conv2_2
I0116 18:47:31.126773  1477 net.cpp:150] Setting up conv2_2
I0116 18:47:31.126782  1477 net.cpp:157] Top shape: 1 128 300 500 (19200000)
I0116 18:47:31.126799  1477 net.cpp:165] Memory required for data: 904800084
I0116 18:47:31.126804  1477 layer_factory.hpp:77] Creating layer relu2_2
I0116 18:47:31.126808  1477 net.cpp:100] Creating Layer relu2_2
I0116 18:47:31.126826  1477 net.cpp:434] relu2_2 <- conv2_2
I0116 18:47:31.126829  1477 net.cpp:395] relu2_2 -> conv2_2 (in-place)
I0116 18:47:31.126978  1477 net.cpp:150] Setting up relu2_2
I0116 18:47:31.126986  1477 net.cpp:157] Top shape: 1 128 300 500 (19200000)
I0116 18:47:31.126988  1477 net.cpp:165] Memory required for data: 981600084
I0116 18:47:31.126991  1477 layer_factory.hpp:77] Creating layer pool2
I0116 18:47:31.127008  1477 net.cpp:100] Creating Layer pool2
I0116 18:47:31.127010  1477 net.cpp:434] pool2 <- conv2_2
I0116 18:47:31.127014  1477 net.cpp:408] pool2 -> pool2
I0116 18:47:31.127055  1477 net.cpp:150] Setting up pool2
I0116 18:47:31.127060  1477 net.cpp:157] Top shape: 1 128 150 250 (4800000)
I0116 18:47:31.127075  1477 net.cpp:165] Memory required for data: 1000800084
I0116 18:47:31.127077  1477 layer_factory.hpp:77] Creating layer conv3_1
I0116 18:47:31.127084  1477 net.cpp:100] Creating Layer conv3_1
I0116 18:47:31.127086  1477 net.cpp:434] conv3_1 <- pool2
I0116 18:47:31.127090  1477 net.cpp:408] conv3_1 -> conv3_1
I0116 18:47:31.135354  1477 net.cpp:150] Setting up conv3_1
I0116 18:47:31.135370  1477 net.cpp:157] Top shape: 1 256 150 250 (9600000)
I0116 18:47:31.135372  1477 net.cpp:165] Memory required for data: 1039200084
I0116 18:47:31.135381  1477 layer_factory.hpp:77] Creating layer relu3_1
I0116 18:47:31.135403  1477 net.cpp:100] Creating Layer relu3_1
I0116 18:47:31.135406  1477 net.cpp:434] relu3_1 <- conv3_1
I0116 18:47:31.135411  1477 net.cpp:395] relu3_1 -> conv3_1 (in-place)
I0116 18:47:31.135586  1477 net.cpp:150] Setting up relu3_1
I0116 18:47:31.135593  1477 net.cpp:157] Top shape: 1 256 150 250 (9600000)
I0116 18:47:31.135596  1477 net.cpp:165] Memory required for data: 1077600084
I0116 18:47:31.135598  1477 layer_factory.hpp:77] Creating layer conv3_2
I0116 18:47:31.135607  1477 net.cpp:100] Creating Layer conv3_2
I0116 18:47:31.135609  1477 net.cpp:434] conv3_2 <- conv3_1
I0116 18:47:31.135614  1477 net.cpp:408] conv3_2 -> conv3_2
I0116 18:47:31.150313  1477 net.cpp:150] Setting up conv3_2
I0116 18:47:31.150331  1477 net.cpp:157] Top shape: 1 256 150 250 (9600000)
I0116 18:47:31.150333  1477 net.cpp:165] Memory required for data: 1116000084
I0116 18:47:31.150338  1477 layer_factory.hpp:77] Creating layer relu3_2
I0116 18:47:31.150346  1477 net.cpp:100] Creating Layer relu3_2
I0116 18:47:31.150348  1477 net.cpp:434] relu3_2 <- conv3_2
I0116 18:47:31.150353  1477 net.cpp:395] relu3_2 -> conv3_2 (in-place)
I0116 18:47:31.150504  1477 net.cpp:150] Setting up relu3_2
I0116 18:47:31.150524  1477 net.cpp:157] Top shape: 1 256 150 250 (9600000)
I0116 18:47:31.150527  1477 net.cpp:165] Memory required for data: 1154400084
I0116 18:47:31.150529  1477 layer_factory.hpp:77] Creating layer conv3_3
I0116 18:47:31.150537  1477 net.cpp:100] Creating Layer conv3_3
I0116 18:47:31.150539  1477 net.cpp:434] conv3_3 <- conv3_2
I0116 18:47:31.150543  1477 net.cpp:408] conv3_3 -> conv3_3
I0116 18:47:31.164546  1477 net.cpp:150] Setting up conv3_3
I0116 18:47:31.164556  1477 net.cpp:157] Top shape: 1 256 150 250 (9600000)
I0116 18:47:31.164558  1477 net.cpp:165] Memory required for data: 1192800084
I0116 18:47:31.164577  1477 layer_factory.hpp:77] Creating layer relu3_3
I0116 18:47:31.164582  1477 net.cpp:100] Creating Layer relu3_3
I0116 18:47:31.164584  1477 net.cpp:434] relu3_3 <- conv3_3
I0116 18:47:31.164589  1477 net.cpp:395] relu3_3 -> conv3_3 (in-place)
I0116 18:47:31.164759  1477 net.cpp:150] Setting up relu3_3
I0116 18:47:31.164765  1477 net.cpp:157] Top shape: 1 256 150 250 (9600000)
I0116 18:47:31.164768  1477 net.cpp:165] Memory required for data: 1231200084
I0116 18:47:31.164770  1477 layer_factory.hpp:77] Creating layer pool3
I0116 18:47:31.164789  1477 net.cpp:100] Creating Layer pool3
I0116 18:47:31.164793  1477 net.cpp:434] pool3 <- conv3_3
I0116 18:47:31.164795  1477 net.cpp:408] pool3 -> pool3
I0116 18:47:31.164854  1477 net.cpp:150] Setting up pool3
I0116 18:47:31.164873  1477 net.cpp:157] Top shape: 1 256 75 125 (2400000)
I0116 18:47:31.164875  1477 net.cpp:165] Memory required for data: 1240800084
I0116 18:47:31.164877  1477 layer_factory.hpp:77] Creating layer conv4_1
I0116 18:47:31.164901  1477 net.cpp:100] Creating Layer conv4_1
I0116 18:47:31.164903  1477 net.cpp:434] conv4_1 <- pool3
I0116 18:47:31.164921  1477 net.cpp:408] conv4_1 -> conv4_1
I0116 18:47:31.193294  1477 net.cpp:150] Setting up conv4_1
I0116 18:47:31.193313  1477 net.cpp:157] Top shape: 1 512 75 125 (4800000)
I0116 18:47:31.193316  1477 net.cpp:165] Memory required for data: 1260000084
I0116 18:47:31.193337  1477 layer_factory.hpp:77] Creating layer relu4_1
I0116 18:47:31.193347  1477 net.cpp:100] Creating Layer relu4_1
I0116 18:47:31.193366  1477 net.cpp:434] relu4_1 <- conv4_1
I0116 18:47:31.193372  1477 net.cpp:395] relu4_1 -> conv4_1 (in-place)
I0116 18:47:31.193514  1477 net.cpp:150] Setting up relu4_1
I0116 18:47:31.193534  1477 net.cpp:157] Top shape: 1 512 75 125 (4800000)
I0116 18:47:31.193536  1477 net.cpp:165] Memory required for data: 1279200084
I0116 18:47:31.193538  1477 layer_factory.hpp:77] Creating layer conv4_2
I0116 18:47:31.193560  1477 net.cpp:100] Creating Layer conv4_2
I0116 18:47:31.193563  1477 net.cpp:434] conv4_2 <- conv4_1
I0116 18:47:31.193583  1477 net.cpp:408] conv4_2 -> conv4_2
I0116 18:47:31.247009  1477 net.cpp:150] Setting up conv4_2
I0116 18:47:31.247026  1477 net.cpp:157] Top shape: 1 512 75 125 (4800000)
I0116 18:47:31.247030  1477 net.cpp:165] Memory required for data: 1298400084
I0116 18:47:31.247054  1477 layer_factory.hpp:77] Creating layer relu4_2
I0116 18:47:31.247077  1477 net.cpp:100] Creating Layer relu4_2
I0116 18:47:31.247082  1477 net.cpp:434] relu4_2 <- conv4_2
I0116 18:47:31.247087  1477 net.cpp:395] relu4_2 -> conv4_2 (in-place)
I0116 18:47:31.247452  1477 net.cpp:150] Setting up relu4_2
I0116 18:47:31.247462  1477 net.cpp:157] Top shape: 1 512 75 125 (4800000)
I0116 18:47:31.247463  1477 net.cpp:165] Memory required for data: 1317600084
I0116 18:47:31.247467  1477 layer_factory.hpp:77] Creating layer conv4_3
I0116 18:47:31.247488  1477 net.cpp:100] Creating Layer conv4_3
I0116 18:47:31.247490  1477 net.cpp:434] conv4_3 <- conv4_2
I0116 18:47:31.247509  1477 net.cpp:408] conv4_3 -> conv4_3
I0116 18:47:31.300999  1477 net.cpp:150] Setting up conv4_3
I0116 18:47:31.301018  1477 net.cpp:157] Top shape: 1 512 75 125 (4800000)
I0116 18:47:31.301020  1477 net.cpp:165] Memory required for data: 1336800084
I0116 18:47:31.301041  1477 layer_factory.hpp:77] Creating layer relu4_3
I0116 18:47:31.301050  1477 net.cpp:100] Creating Layer relu4_3
I0116 18:47:31.301069  1477 net.cpp:434] relu4_3 <- conv4_3
I0116 18:47:31.301074  1477 net.cpp:395] relu4_3 -> conv4_3 (in-place)
I0116 18:47:31.301228  1477 net.cpp:150] Setting up relu4_3
I0116 18:47:31.301234  1477 net.cpp:157] Top shape: 1 512 75 125 (4800000)
I0116 18:47:31.301236  1477 net.cpp:165] Memory required for data: 1356000084
I0116 18:47:31.301239  1477 layer_factory.hpp:77] Creating layer pool4
I0116 18:47:31.301257  1477 net.cpp:100] Creating Layer pool4
I0116 18:47:31.301260  1477 net.cpp:434] pool4 <- conv4_3
I0116 18:47:31.301264  1477 net.cpp:408] pool4 -> pool4
I0116 18:47:31.301323  1477 net.cpp:150] Setting up pool4
I0116 18:47:31.301342  1477 net.cpp:157] Top shape: 1 512 38 63 (1225728)
I0116 18:47:31.301343  1477 net.cpp:165] Memory required for data: 1360902996
I0116 18:47:31.301345  1477 layer_factory.hpp:77] Creating layer conv5_1
I0116 18:47:31.301353  1477 net.cpp:100] Creating Layer conv5_1
I0116 18:47:31.301355  1477 net.cpp:434] conv5_1 <- pool4
I0116 18:47:31.301359  1477 net.cpp:408] conv5_1 -> conv5_1
I0116 18:47:31.354828  1477 net.cpp:150] Setting up conv5_1
I0116 18:47:31.354847  1477 net.cpp:157] Top shape: 1 512 38 63 (1225728)
I0116 18:47:31.354849  1477 net.cpp:165] Memory required for data: 1365805908
I0116 18:47:31.354871  1477 layer_factory.hpp:77] Creating layer relu5_1
I0116 18:47:31.354879  1477 net.cpp:100] Creating Layer relu5_1
I0116 18:47:31.354897  1477 net.cpp:434] relu5_1 <- conv5_1
I0116 18:47:31.354902  1477 net.cpp:395] relu5_1 -> conv5_1 (in-place)
I0116 18:47:31.355062  1477 net.cpp:150] Setting up relu5_1
I0116 18:47:31.355068  1477 net.cpp:157] Top shape: 1 512 38 63 (1225728)
I0116 18:47:31.355072  1477 net.cpp:165] Memory required for data: 1370708820
I0116 18:47:31.355073  1477 layer_factory.hpp:77] Creating layer conv5_2
I0116 18:47:31.355095  1477 net.cpp:100] Creating Layer conv5_2
I0116 18:47:31.355098  1477 net.cpp:434] conv5_2 <- conv5_1
I0116 18:47:31.355116  1477 net.cpp:408] conv5_2 -> conv5_2
I0116 18:47:31.408704  1477 net.cpp:150] Setting up conv5_2
I0116 18:47:31.408736  1477 net.cpp:157] Top shape: 1 512 38 63 (1225728)
I0116 18:47:31.408740  1477 net.cpp:165] Memory required for data: 1375611732
I0116 18:47:31.408746  1477 layer_factory.hpp:77] Creating layer relu5_2
I0116 18:47:31.408756  1477 net.cpp:100] Creating Layer relu5_2
I0116 18:47:31.408773  1477 net.cpp:434] relu5_2 <- conv5_2
I0116 18:47:31.408778  1477 net.cpp:395] relu5_2 -> conv5_2 (in-place)
I0116 18:47:31.408949  1477 net.cpp:150] Setting up relu5_2
I0116 18:47:31.408957  1477 net.cpp:157] Top shape: 1 512 38 63 (1225728)
I0116 18:47:31.408972  1477 net.cpp:165] Memory required for data: 1380514644
I0116 18:47:31.408975  1477 layer_factory.hpp:77] Creating layer conv5_3
I0116 18:47:31.408985  1477 net.cpp:100] Creating Layer conv5_3
I0116 18:47:31.408988  1477 net.cpp:434] conv5_3 <- conv5_2
I0116 18:47:31.409008  1477 net.cpp:408] conv5_3 -> conv5_3
I0116 18:47:31.462440  1477 net.cpp:150] Setting up conv5_3
I0116 18:47:31.462474  1477 net.cpp:157] Top shape: 1 512 38 63 (1225728)
I0116 18:47:31.462477  1477 net.cpp:165] Memory required for data: 1385417556
I0116 18:47:31.462483  1477 layer_factory.hpp:77] Creating layer relu5_3
I0116 18:47:31.462492  1477 net.cpp:100] Creating Layer relu5_3
I0116 18:47:31.462510  1477 net.cpp:434] relu5_3 <- conv5_3
I0116 18:47:31.462514  1477 net.cpp:395] relu5_3 -> conv5_3 (in-place)
I0116 18:47:31.462677  1477 net.cpp:150] Setting up relu5_3
I0116 18:47:31.462682  1477 net.cpp:157] Top shape: 1 512 38 63 (1225728)
I0116 18:47:31.462698  1477 net.cpp:165] Memory required for data: 1390320468
I0116 18:47:31.462702  1477 layer_factory.hpp:77] Creating layer conv5_3_relu5_3_0_split
I0116 18:47:31.462705  1477 net.cpp:100] Creating Layer conv5_3_relu5_3_0_split
I0116 18:47:31.462707  1477 net.cpp:434] conv5_3_relu5_3_0_split <- conv5_3
I0116 18:47:31.462712  1477 net.cpp:408] conv5_3_relu5_3_0_split -> conv5_3_relu5_3_0_split_0
I0116 18:47:31.462715  1477 net.cpp:408] conv5_3_relu5_3_0_split -> conv5_3_relu5_3_0_split_1
I0116 18:47:31.462775  1477 net.cpp:150] Setting up conv5_3_relu5_3_0_split
I0116 18:47:31.462793  1477 net.cpp:157] Top shape: 1 512 38 63 (1225728)
I0116 18:47:31.462796  1477 net.cpp:157] Top shape: 1 512 38 63 (1225728)
I0116 18:47:31.462810  1477 net.cpp:165] Memory required for data: 1400126292
I0116 18:47:31.462812  1477 layer_factory.hpp:77] Creating layer rpn_conv/3x3
I0116 18:47:31.462821  1477 net.cpp:100] Creating Layer rpn_conv/3x3
I0116 18:47:31.462823  1477 net.cpp:434] rpn_conv/3x3 <- conv5_3_relu5_3_0_split_0
I0116 18:47:31.462827  1477 net.cpp:408] rpn_conv/3x3 -> rpn/output
I0116 18:47:31.516489  1477 net.cpp:150] Setting up rpn_conv/3x3
I0116 18:47:31.516522  1477 net.cpp:157] Top shape: 1 512 38 63 (1225728)
I0116 18:47:31.516526  1477 net.cpp:165] Memory required for data: 1405029204
I0116 18:47:31.516533  1477 layer_factory.hpp:77] Creating layer rpn_relu/3x3
I0116 18:47:31.516541  1477 net.cpp:100] Creating Layer rpn_relu/3x3
I0116 18:47:31.516544  1477 net.cpp:434] rpn_relu/3x3 <- rpn/output
I0116 18:47:31.516564  1477 net.cpp:395] rpn_relu/3x3 -> rpn/output (in-place)
I0116 18:47:31.516736  1477 net.cpp:150] Setting up rpn_relu/3x3
I0116 18:47:31.516742  1477 net.cpp:157] Top shape: 1 512 38 63 (1225728)
I0116 18:47:31.516759  1477 net.cpp:165] Memory required for data: 1409932116
I0116 18:47:31.516762  1477 layer_factory.hpp:77] Creating layer rpn/output_rpn_relu/3x3_0_split
I0116 18:47:31.516765  1477 net.cpp:100] Creating Layer rpn/output_rpn_relu/3x3_0_split
I0116 18:47:31.516768  1477 net.cpp:434] rpn/output_rpn_relu/3x3_0_split <- rpn/output
I0116 18:47:31.516772  1477 net.cpp:408] rpn/output_rpn_relu/3x3_0_split -> rpn/output_rpn_relu/3x3_0_split_0
I0116 18:47:31.516790  1477 net.cpp:408] rpn/output_rpn_relu/3x3_0_split -> rpn/output_rpn_relu/3x3_0_split_1
I0116 18:47:31.516865  1477 net.cpp:150] Setting up rpn/output_rpn_relu/3x3_0_split
I0116 18:47:31.516870  1477 net.cpp:157] Top shape: 1 512 38 63 (1225728)
I0116 18:47:31.516872  1477 net.cpp:157] Top shape: 1 512 38 63 (1225728)
I0116 18:47:31.516888  1477 net.cpp:165] Memory required for data: 1419737940
I0116 18:47:31.516891  1477 layer_factory.hpp:77] Creating layer rpn_cls_score
I0116 18:47:31.516911  1477 net.cpp:100] Creating Layer rpn_cls_score
I0116 18:47:31.516914  1477 net.cpp:434] rpn_cls_score <- rpn/output_rpn_relu/3x3_0_split_0
I0116 18:47:31.516933  1477 net.cpp:408] rpn_cls_score -> rpn_cls_score
I0116 18:47:31.518049  1477 net.cpp:150] Setting up rpn_cls_score
I0116 18:47:31.518059  1477 net.cpp:157] Top shape: 1 18 38 63 (43092)
I0116 18:47:31.518075  1477 net.cpp:165] Memory required for data: 1419910308
I0116 18:47:31.518079  1477 layer_factory.hpp:77] Creating layer rpn_cls_score_rpn_cls_score_0_split
I0116 18:47:31.518085  1477 net.cpp:100] Creating Layer rpn_cls_score_rpn_cls_score_0_split
I0116 18:47:31.518087  1477 net.cpp:434] rpn_cls_score_rpn_cls_score_0_split <- rpn_cls_score
I0116 18:47:31.518090  1477 net.cpp:408] rpn_cls_score_rpn_cls_score_0_split -> rpn_cls_score_rpn_cls_score_0_split_0
I0116 18:47:31.518112  1477 net.cpp:408] rpn_cls_score_rpn_cls_score_0_split -> rpn_cls_score_rpn_cls_score_0_split_1
I0116 18:47:31.518167  1477 net.cpp:150] Setting up rpn_cls_score_rpn_cls_score_0_split
I0116 18:47:31.518173  1477 net.cpp:157] Top shape: 1 18 38 63 (43092)
I0116 18:47:31.518188  1477 net.cpp:157] Top shape: 1 18 38 63 (43092)
I0116 18:47:31.518190  1477 net.cpp:165] Memory required for data: 1420255044
I0116 18:47:31.518193  1477 layer_factory.hpp:77] Creating layer rpn_bbox_pred
I0116 18:47:31.518198  1477 net.cpp:100] Creating Layer rpn_bbox_pred
I0116 18:47:31.518201  1477 net.cpp:434] rpn_bbox_pred <- rpn/output_rpn_relu/3x3_0_split_1
I0116 18:47:31.518204  1477 net.cpp:408] rpn_bbox_pred -> rpn_bbox_pred
I0116 18:47:31.519343  1477 net.cpp:150] Setting up rpn_bbox_pred
I0116 18:47:31.519352  1477 net.cpp:157] Top shape: 1 36 38 63 (86184)
I0116 18:47:31.519369  1477 net.cpp:165] Memory required for data: 1420599780
I0116 18:47:31.519374  1477 layer_factory.hpp:77] Creating layer rpn_bbox_pred_rpn_bbox_pred_0_split
I0116 18:47:31.519377  1477 net.cpp:100] Creating Layer rpn_bbox_pred_rpn_bbox_pred_0_split
I0116 18:47:31.519381  1477 net.cpp:434] rpn_bbox_pred_rpn_bbox_pred_0_split <- rpn_bbox_pred
I0116 18:47:31.519385  1477 net.cpp:408] rpn_bbox_pred_rpn_bbox_pred_0_split -> rpn_bbox_pred_rpn_bbox_pred_0_split_0
I0116 18:47:31.519389  1477 net.cpp:408] rpn_bbox_pred_rpn_bbox_pred_0_split -> rpn_bbox_pred_rpn_bbox_pred_0_split_1
I0116 18:47:31.519462  1477 net.cpp:150] Setting up rpn_bbox_pred_rpn_bbox_pred_0_split
I0116 18:47:31.519480  1477 net.cpp:157] Top shape: 1 36 38 63 (86184)
I0116 18:47:31.519482  1477 net.cpp:157] Top shape: 1 36 38 63 (86184)
I0116 18:47:31.519484  1477 net.cpp:165] Memory required for data: 1421289252
I0116 18:47:31.519486  1477 layer_factory.hpp:77] Creating layer rpn_cls_score_reshape
I0116 18:47:31.519506  1477 net.cpp:100] Creating Layer rpn_cls_score_reshape
I0116 18:47:31.519508  1477 net.cpp:434] rpn_cls_score_reshape <- rpn_cls_score_rpn_cls_score_0_split_0
I0116 18:47:31.519526  1477 net.cpp:408] rpn_cls_score_reshape -> rpn_cls_score_reshape
I0116 18:47:31.519562  1477 net.cpp:150] Setting up rpn_cls_score_reshape
I0116 18:47:31.519567  1477 net.cpp:157] Top shape: 1 2 342 63 (43092)
I0116 18:47:31.519568  1477 net.cpp:165] Memory required for data: 1421461620
I0116 18:47:31.519570  1477 layer_factory.hpp:77] Creating layer rpn_cls_score_reshape_rpn_cls_score_reshape_0_split
I0116 18:47:31.519574  1477 net.cpp:100] Creating Layer rpn_cls_score_reshape_rpn_cls_score_reshape_0_split
I0116 18:47:31.519577  1477 net.cpp:434] rpn_cls_score_reshape_rpn_cls_score_reshape_0_split <- rpn_cls_score_reshape
I0116 18:47:31.519580  1477 net.cpp:408] rpn_cls_score_reshape_rpn_cls_score_reshape_0_split -> rpn_cls_score_reshape_rpn_cls_score_reshape_0_split_0
I0116 18:47:31.519584  1477 net.cpp:408] rpn_cls_score_reshape_rpn_cls_score_reshape_0_split -> rpn_cls_score_reshape_rpn_cls_score_reshape_0_split_1
I0116 18:47:31.519608  1477 net.cpp:150] Setting up rpn_cls_score_reshape_rpn_cls_score_reshape_0_split
I0116 18:47:31.519613  1477 net.cpp:157] Top shape: 1 2 342 63 (43092)
I0116 18:47:31.519615  1477 net.cpp:157] Top shape: 1 2 342 63 (43092)
I0116 18:47:31.519618  1477 net.cpp:165] Memory required for data: 1421806356
I0116 18:47:31.519631  1477 layer_factory.hpp:77] Creating layer rpn-data
I0116 18:47:31.519981  1477 net.cpp:100] Creating Layer rpn-data
I0116 18:47:31.519990  1477 net.cpp:434] rpn-data <- rpn_cls_score_rpn_cls_score_0_split_1
I0116 18:47:31.520009  1477 net.cpp:434] rpn-data <- gt_boxes_input-data_2_split_0
I0116 18:47:31.520012  1477 net.cpp:434] rpn-data <- im_info_input-data_1_split_0
I0116 18:47:31.520015  1477 net.cpp:434] rpn-data <- data_input-data_0_split_1
I0116 18:47:31.520020  1477 net.cpp:408] rpn-data -> rpn_labels
I0116 18:47:31.520025  1477 net.cpp:408] rpn-data -> rpn_bbox_targets
I0116 18:47:31.520030  1477 net.cpp:408] rpn-data -> rpn_bbox_inside_weights
I0116 18:47:31.520033  1477 net.cpp:408] rpn-data -> rpn_bbox_outside_weights
I0116 18:47:31.520692  1477 net.cpp:150] Setting up rpn-data
I0116 18:47:31.520706  1477 net.cpp:157] Top shape: 1 1 342 63 (21546)
I0116 18:47:31.520711  1477 net.cpp:157] Top shape: 1 36 38 63 (86184)
I0116 18:47:31.520716  1477 net.cpp:157] Top shape: 1 36 38 63 (86184)
I0116 18:47:31.520721  1477 net.cpp:157] Top shape: 1 36 38 63 (86184)
I0116 18:47:31.520725  1477 net.cpp:165] Memory required for data: 1422926748
I0116 18:47:31.520730  1477 layer_factory.hpp:77] Creating layer rpn_loss_cls
I0116 18:47:31.520741  1477 net.cpp:100] Creating Layer rpn_loss_cls
I0116 18:47:31.520747  1477 net.cpp:434] rpn_loss_cls <- rpn_cls_score_reshape_rpn_cls_score_reshape_0_split_0
I0116 18:47:31.520752  1477 net.cpp:434] rpn_loss_cls <- rpn_labels
…
I0116 18:47:31.521858  1477 net.cpp:157] Top shape: (1)
I0116 18:47:31.521862  1477 net.cpp:160]     with loss weight 1
I0116 18:47:31.521881  1477 net.cpp:165] Memory required for data: 1422926756
I0116 18:47:31.521885  1477 layer_factory.hpp:77] Creating layer rpn_cls_prob
I0116 18:47:31.521905  1477 net.cpp:100] Creating Layer rpn_cls_prob
I0116 18:47:31.521910  1477 net.cpp:434] rpn_cls_prob <- rpn_cls_score_reshape_rpn_cls_score_reshape_0_split_1
I0116 18:47:31.521919  1477 net.cpp:408] rpn_cls_prob -> rpn_cls_prob
I0116 18:47:31.522123  1477 net.cpp:150] Setting up rpn_cls_prob
I0116 18:47:31.522131  1477 net.cpp:157] Top shape: 1 2 342 63 (43092)
I0116 18:47:31.522135  1477 net.cpp:165] Memory required for data: 1423099124
I0116 18:47:31.522140  1477 layer_factory.hpp:77] Creating layer rpn_cls_prob_reshape
I0116 18:47:31.522162  1477 net.cpp:100] Creating Layer rpn_cls_prob_reshape
I0116 18:47:31.522181  1477 net.cpp:434] rpn_cls_prob_reshape <- rpn_cls_prob
I0116 18:47:31.522202  1477 net.cpp:408] rpn_cls_prob_reshape -> rpn_cls_prob_reshape
I0116 18:47:31.522228  1477 net.cpp:150] Setting up rpn_cls_prob_reshape
I0116 18:47:31.522248  1477 net.cpp:157] Top shape: 1 18 38 63 (43092)
I0116 18:47:31.522265  1477 net.cpp:165] Memory required for data: 1423271492
I0116 18:47:31.522270  1477 layer_factory.hpp:77] Creating layer proposal
I0116 18:47:31.522814  1477 net.cpp:100] Creating Layer proposal
I0116 18:47:31.522824  1477 net.cpp:434] proposal <- rpn_cls_prob_reshape
I0116 18:47:31.522830  1477 net.cpp:434] proposal <- rpn_bbox_pred_rpn_bbox_pred_0_split_1
I0116 18:47:31.522850  1477 net.cpp:434] proposal <- im_info_input-data_1_split_1
I0116 18:47:31.522871  1477 net.cpp:408] proposal -> rpn_rois
I0116 18:47:31.523481  1477 net.cpp:150] Setting up proposal
I0116 18:47:31.523493  1477 net.cpp:157] Top shape: 1 5 (5)
I0116 18:47:31.523496  1477 net.cpp:165] Memory required for data: 1423271512
I0116 18:47:31.523514  1477 layer_factory.hpp:77] Creating layer roi-data
I0116 18:47:31.523651  1477 net.cpp:100] Creating Layer roi-data
I0116 18:47:31.523659  1477 net.cpp:434] roi-data <- rpn_rois
I0116 18:47:31.523665  1477 net.cpp:434] roi-data <- gt_boxes_input-data_2_split_1
I0116 18:47:31.523687  1477 net.cpp:408] roi-data -> rois
I0116 18:47:31.523695  1477 net.cpp:408] roi-data -> labels
I0116 18:47:31.523701  1477 net.cpp:408] roi-data -> bbox_targets
I0116 18:47:31.523715  1477 net.cpp:408] roi-data -> bbox_inside_weights
I0116 18:47:31.523723  1477 net.cpp:408] roi-data -> bbox_outside_weights
I0116 18:47:31.524080  1477 net.cpp:150] Setting up roi-data
I0116 18:47:31.524091  1477 net.cpp:157] Top shape: 1 5 (5)
I0116 18:47:31.524096  1477 net.cpp:157] Top shape: 1 1 (1)
I0116 18:47:31.524099  1477 net.cpp:157] Top shape: 1 20 (20)
I0116 18:47:31.524124  1477 net.cpp:157] Top shape: 1 20 (20)
I0116 18:47:31.524143  1477 net.cpp:157] Top shape: 1 20 (20)
I0116 18:47:31.524147  1477 net.cpp:165] Memory required for data: 1423271776
I0116 18:47:31.524150  1477 layer_factory.hpp:77] Creating layer roi_pool5
I0116 18:47:31.524175  1477 net.cpp:100] Creating Layer roi_pool5
I0116 18:47:31.524180  1477 net.cpp:434] roi_pool5 <- conv5_3_relu5_3_0_split_1
I0116 18:47:31.524200  1477 net.cpp:434] roi_pool5 <- rois
I0116 18:47:31.524219  1477 net.cpp:408] roi_pool5 -> pool5
I0116 18:47:31.524229  1477 roi_pooling_layer.cpp:30] Spatial scale: 0.0625
I0116 18:47:31.524292  1477 net.cpp:150] Setting up roi_pool5
I0116 18:47:31.524299  1477 net.cpp:157] Top shape: 1 512 7 7 (25088)
I0116 18:47:31.524302  1477 net.cpp:165] Memory required for data: 1423372128
I0116 18:47:31.524307  1477 layer_factory.hpp:77] Creating layer fc6
I0116 18:47:31.524318  1477 net.cpp:100] Creating Layer fc6
I0116 18:47:31.524323  1477 net.cpp:434] fc6 <- pool5
I0116 18:47:31.524329  1477 net.cpp:408] fc6 -> fc6
I0116 18:47:33.822585  1477 net.cpp:150] Setting up fc6
I0116 18:47:33.822610  1477 net.cpp:157] Top shape: 1 4096 (4096)
I0116 18:47:33.822614  1477 net.cpp:165] Memory required for data: 1423388512
I0116 18:47:33.822672  1477 layer_factory.hpp:77] Creating layer relu6
I0116 18:47:33.822701  1477 net.cpp:100] Creating Layer relu6
I0116 18:47:33.822707  1477 net.cpp:434] relu6 <- fc6
I0116 18:47:33.822727  1477 net.cpp:395] relu6 -> fc6 (in-place)
I0116 18:47:33.822979  1477 net.cpp:150] Setting up relu6
I0116 18:47:33.822988  1477 net.cpp:157] Top shape: 1 4096 (4096)
I0116 18:47:33.822993  1477 net.cpp:165] Memory required for data: 1423404896
I0116 18:47:33.822996  1477 layer_factory.hpp:77] Creating layer drop6
I0116 18:47:33.823019  1477 net.cpp:100] Creating Layer drop6
I0116 18:47:33.823060  1477 net.cpp:434] drop6 <- fc6
I0116 18:47:33.823066  1477 net.cpp:395] drop6 -> fc6 (in-place)
I0116 18:47:33.823093  1477 net.cpp:150] Setting up drop6
I0116 18:47:33.823099  1477 net.cpp:157] Top shape: 1 4096 (4096)
I0116 18:47:33.823104  1477 net.cpp:165] Memory required for data: 1423421280
I0116 18:47:33.823120  1477 layer_factory.hpp:77] Creating layer fc7
I0116 18:47:33.823130  1477 net.cpp:100] Creating Layer fc7
I0116 18:47:33.823158  1477 net.cpp:434] fc7 <- fc6
I0116 18:47:33.823163  1477 net.cpp:408] fc7 -> fc7
I0116 18:47:34.200402  1477 net.cpp:150] Setting up fc7
I0116 18:47:34.200424  1477 net.cpp:157] Top shape: 1 4096 (4096)
I0116 18:47:34.200428  1477 net.cpp:165] Memory required for data: 1423437664
I0116 18:47:34.200453  1477 layer_factory.hpp:77] Creating layer relu7
I0116 18:47:34.200481  1477 net.cpp:100] Creating Layer relu7
I0116 18:47:34.200501  1477 net.cpp:434] relu7 <- fc7
I0116 18:47:34.200508  1477 net.cpp:395] relu7 -> fc7 (in-place)
I0116 18:47:34.200716  1477 net.cpp:150] Setting up relu7
I0116 18:47:34.200724  1477 net.cpp:157] Top shape: 1 4096 (4096)
I0116 18:47:34.200728  1477 net.cpp:165] Memory required for data: 1423454048
I0116 18:47:34.200732  1477 layer_factory.hpp:77] Creating layer drop7
I0116 18:47:34.200755  1477 net.cpp:100] Creating Layer drop7
I0116 18:47:34.200774  1477 net.cpp:434] drop7 <- fc7
I0116 18:47:34.200780  1477 net.cpp:395] drop7 -> fc7 (in-place)
I0116 18:47:34.200848  1477 net.cpp:150] Setting up drop7
I0116 18:47:34.200867  1477 net.cpp:157] Top shape: 1 4096 (4096)
I0116 18:47:34.200870  1477 net.cpp:165] Memory required for data: 1423470432
I0116 18:47:34.200888  1477 layer_factory.hpp:77] Creating layer fc7_drop7_0_split
I0116 18:47:34.200893  1477 net.cpp:100] Creating Layer fc7_drop7_0_split
I0116 18:47:34.200896  1477 net.cpp:434] fc7_drop7_0_split <- fc7
I0116 18:47:34.200919  1477 net.cpp:408] fc7_drop7_0_split -> fc7_drop7_0_split_0
I0116 18:47:34.200928  1477 net.cpp:408] fc7_drop7_0_split -> fc7_drop7_0_split_1
I0116 18:47:34.200995  1477 net.cpp:150] Setting up fc7_drop7_0_split
I0116 18:47:34.201002  1477 net.cpp:157] Top shape: 1 4096 (4096)
I0116 18:47:34.201020  1477 net.cpp:157] Top shape: 1 4096 (4096)
I0116 18:47:34.201023  1477 net.cpp:165] Memory required for data: 1423503200
I0116 18:47:34.201040  1477 layer_factory.hpp:77] Creating layer cls_score_new
I0116 18:47:34.201068  1477 net.cpp:100] Creating Layer cls_score_new
I0116 18:47:34.201073  1477 net.cpp:434] cls_score_new <- fc7_drop7_0_split_0
I0116 18:47:34.201079  1477 net.cpp:408] cls_score_new -> cls_score
I0116 18:47:34.201699  1477 net.cpp:150] Setting up cls_score_new
I0116 18:47:34.201705  1477 net.cpp:157] Top shape: 1 5 (5)
I0116 18:47:34.201709  1477 net.cpp:165] Memory required for data: 1423503220
I0116 18:47:34.201715  1477 layer_factory.hpp:77] Creating layer bbox_pred_new
I0116 18:47:34.201737  1477 net.cpp:100] Creating Layer bbox_pred_new
I0116 18:47:34.201742  1477 net.cpp:434] bbox_pred_new <- fc7_drop7_0_split_1
I0116 18:47:34.201763  1477 net.cpp:408] bbox_pred_new -> bbox_pred
I0116 18:47:34.203670  1477 net.cpp:150] Setting up bbox_pred_new
I0116 18:47:34.203676  1477 net.cpp:157] Top shape: 1 20 (20)
I0116 18:47:34.203680  1477 net.cpp:165] Memory required for data: 1423503300
I0116 18:47:34.203686  1477 layer_factory.hpp:77] Creating layer loss_cls
I0116 18:47:34.203711  1477 net.cpp:100] Creating Layer loss_cls
I0116 18:47:34.203716  1477 net.cpp:434] loss_cls <- cls_score
I0116 18:47:34.203735  1477 net.cpp:434] loss_cls <- labels
I0116 18:47:34.203742  1477 net.cpp:408] loss_cls -> loss_cls
…
